…
\u0026#39;[PAD]\u0026#39;, # 0 \u0026#39;cls_token\u0026#39;: \u0026#39;[CLS]\u0026#39;, # 101 \u0026#39;mask_token\u0026#39;: \u0026#39;[MASK]\u0026#39; # 103} Parameter 这里以Google发布的google-bert/bert-base-uncased（12层BertLayer）为例。\n通过model可以看到BERT的架构如下：\nEmbedding由word embeddings、position embeddings和token type embedding三部分组成\nEncoder由12层BertLayer组成，每层BertLayer都由一次Self Attention和一次FFN组成\nPooler全连接层\nOutput(optional)作为下游任务的输出层\n1 2 3 4 5 6 7 8 9 10 11 12 13 14 15 16 17 18 19 20 21 22 23 24 25 26 27 28 29 30 31 32 33 34 35 36 37 38 39 40 41 BertModel( (embeddings): BertEmbeddings( (word_embeddings): Embedding(30522, 768, padding_idx=0) (position_embeddings): Embedding(512, 768) (token_type_embeddings): Embedding(2, 768) (LayerNorm): LayerNorm((768,), eps=1e-12, elementwise_affine=True) (dropout): Dropout(p=0.1, inplace=False) ) (encoder): BertEncoder( (layer): ModuleList( (0-11): 12 x BertLayer( (attention): BertAttention( (self): BertSdpaSelfAttention( (query): Linear(in_features=768, out_features=768, bias=True) (key): Linear(in_features=768, out_features=768, bias=True) (value): Linear(in_features=768, out_features=768, bias=True) (dropout): Dropout(p=0.1, inplace=False) ) (output): BertSelfOutput( (dense): Linear(in_features=768, out_features=768, bias=True) (LayerNorm): LayerNorm((768,), eps=1e-12, elementwise_affine=True) (dropout): Dropout(p=0.1, inplace=False) ) ) (intermediate): BertIntermediate( (dense): Linear(in_features=768, out_features=3072, bias=True) (intermediate_act_fn): GELUActivation() ) (output): BertOutput( (dense): Linear(in_features=3072, out_features=768, bias=True) (LayerNorm): LayerNorm((768,), eps=1e-12, elementwise_affine=True) (dropout): Dropout(p=0.1, inplace=False) ) ) ) ) (pooler): BertPooler( (dense): Linear(in_features=768, out_features=768, bias=True) (activation): Tanh() ) ) 可以用以下代码计算每一部分的参数量：\n1 2 3 4 5 6 7 8 9 10 11 12 13 14 15 16 17 18 19 20 21 22 23 24 25 26 total_params = 0 total_learnable_params = 0 total_embedding_params = 0 total_encoder_params = 0 total_pooler_params = 0 for name, param in model.named_parameters(): # print(name, \u0026#39;-\u0026gt;\u0026#39;, param.shape, \u0026#39;-\u002
…
